Graph/GNN/GAT/models/checkpoints/gat_ckpt_epoch_1000.pth (torch, 373047 bytes, 8 tensors)

gat_net.0.scoring_fn_target f4 [1, 8, 8]
000000 a2 74 a5 3d b1 4c 6d 3d 40 48 65 bd fa 05 2b 3d
       0.080788866 0.057934467 -0.055977106 0.041753747
000010 09 8a 8d 3b 85 61 6d 3c 41 f8 00 3d 20 e8 db bd
       0.0043194336 0.0144885825 0.031486753 -0.10737634
000020 29 89 26 3d c0 e5 34 3d 8e 3f 64 3d db b6 62 3d
       0.04065815 0.04416442 0.055724673 0.055350166
000030 90 17 06 3c 2e f9 ac 3d 80 c9 56 3b 53 51 0a 3d
       0.008184329 0.08445965 0.0032773912 0.033768963
000040 24 88 80 3d 3f b3 f4 bd 57 d0 60 3c 0c d2 92 bd
       0.06275967 -0.11948251 0.013721547 -0.071689695
000050 23 06 c2 bd 7b a6 20 3c 91 36 5a bd 8c 4d fc 3d
       -0.09473827 0.009805317 -0.053274695 0.123194784
000060 52 a6 aa bc 41 d0 99 3b f1 2e 05 bc 42 97 0a bd
       -0.02083126 0.0046940153 -0.0081288675 -0.033835657
000070 68 c0 96 3c 4c 5a 07 bd a2 2f b8 3c a3 23 66 3d
       0.018402293 -0.0330451 0.02248365 0.05618633
000080 5b 4f f9 3b 65 95 90 bd 35 65 24 bd 04 6d c1 bd
       0.007608337 -0.07059745 -0.04013558 -0.09444621
000090 1d 5e ea bc 85 e3 27 bd 1d 1b 84 3d 5c 0b ab 3c
       -0.02860933 -0.040988464 0.06450484 0.02087944
0000a0 8e db 31 be 88 9f d8 bd 8d 03 c3 3d 64 8b b7 bb
       -0.1736891 -0.10577303 0.09522162 -0.0056013335
0000b0 10 58 23 3e 0f 81 ea 3c 05 c7 09 bc 1f ee b2 bc
       0.15951562 0.028625993 -0.008409266 -0.02184206
0000c0 83 1f 79 3d cf 3d f6 bc f7 2b 88 bd 68 31 fc bb
       0.060821068 -0.03005877 -0.06649011 -0.0076963194
0000d0 d4 3d e5 3c 48 72 a1 3d 5d ef 29 bd 40 d8 98 3c
       0.027983584 0.078831255 -0.04148804 0.018657804
0000e0 62 e8 59 bd b9 ba 8d bd 9b 10 79 bd fb fa 2b 3c
       -0.053200133 -0.0692038 -0.06080685 0.01049685
0000f0 ac 9b 17 bd 84 9e 72 bd 25 8b 92 3d ae 52 99 bc
       -0.037013695 -0.059233204 0.07155446 -0.018716183

gat_net.0.scoring_fn_source f4 [1, 8, 8]
000000 a0 01 b8 3e d0 df 5b bd 73 3a 99 3d b2 c2 63 3e
       0.3593874 -0.05368024 0.074818514 0.22242239
000010 4d 1a 85 3d d3 77 ac 3e 28 b8 71 3e 1a f1 1b be
       0.06499157 0.3368517 0.23605406 -0.15228692
000020 5a 7e a0 3e f9 07 9a 3e df ee 72 bb c7 1e 74 3e
       0.313464 0.30084208 -0.0037068648 0.23839866
000030 1d 79 a9 3d 32 2e 3c 3e 50 fe 0d bd ce cd ab bd
       0.08275054 0.18376997 -0.03466636 -0.083888635
000040 21 ac 00 bd 64 b5 69 3e dd 35 2c bd 3f 63 b3 bd
       -0.031414155 0.22823101 -0.042043556 -0.08759164
000050 5d 71 96 be b7 66 03 bd ec 1b fb bd 21 b9 08 3e
       -0.29383364 -0.03208038 -0.12261185 0.13351871
000060 bd 0f a8 be 9b 32 f4 3d 8f 19 43 3e a8 96 80 be
       -0.32824507 0.11923715 0.19052719 -0.25114942
000070 9c ec 3c 3d 62 8f 7a be a6 42 5e 3e 71 0c 87 3e
       0.046124086 -0.24468759 0.21705112 0.2637668
000080 20 72 71 3d 55 e6 02 be 04 ce 01 be 78 c1 80 be
       0.05894673 -0.12783177 -0.12676245 -0.25147605
000090 43 b4 d6 bd 77 10 cf bd b7 d5 32 3d a9 cc f2 bd
       -0.10483601 -0.10110562 0.043660846 -0.11855442
0000a0 a2 b9 75 bd 97 83 7b b9 35 d5 8d 3e 89 56 c5 3c
       -0.059991486 -0.00023986246 0.27701727 0.024089115
0000b0 34 10 74 be d3 92 13 3e 6a 8e 75 3c a0 97 94 bd
       -0.23834306 0.14411478 0.014987567 -0.07255483
0000c0 32 51 99 3d ef 20 e0 bd 2f ec d0 bc e5 a5 80 bd
       0.0748619 -0.109437816 -0.025503246 -0.06281642
0000d0 d4 d3 17 be f1 af 09 3e 15 c1 86 3e e2 35 c9 3e
       -0.148269 0.13446023 0.26319185 0.39298922
0000e0 d5 3d f7 bd 17 b9 43 be 8c 87 52 bd 04 47 9f 3d
       -0.120723404 -0.19113575 -0.0513988 0.07777217
0000f0 9a 62 0e be 5f c1 84 3c 00 f6 ee ba 29 45 c9 be
       -0.13904801 0.016205488 -0.0018231273 -0.39310578

gat_net.0.bias f4 [64]
000000 8b 80 c2 3c 4e ae 5f 3c f5 03 e5 bc cc 39 1c 3d
       0.023742935 0.013652397 -0.027955988 0.038141057
000010 be b3 bf 3c 13 d1 eb 3c b7 08 94 bc a6 c2 a4 bc
       0.023401137 0.028786218 -0.018070562 -0.020112347
000020 57 31 b4 3c 2c d3 3b 3d 11 12 33 bd b5 34 73 3c
       0.021996183 0.045855686 -0.0437184 0.014844109
000030 3a ee 16 bc 81 4f 57 bb 5b 80 65 3c 0e 8b 32 bc
       -0.009212071 -0.0032853785 0.014007653 -0.010897411
000040 43 9c ff bb 3a 3d 48 3b 64 5c 85 3c 13 9a a1 3c
       -0.0078006103 0.0030554072 0.016279407 0.019726789
000050 80 3c 00 3c a6 01 2f 3b e3 e7 de 3c 6d cd b6 3c
       0.007826924 0.0026703863 0.027210182 0.022314752
000060 0d 2c 9b bb 82 80 68 bc db 0c 6e 3c 2a 3b 8d 3c
       -0.004735476 -0.014190795 0.014529432 0.017240126
000070 a3 74 0c 3d 6f ee 92 3c cf 3f 8b 3d 25 27 9d bc
       0.03429092 0.01793596 0.0679928 -0.019183705
000080 32 fc 34 bd 36 60 35 3c a2 9c 6c 3c 05 ff 2c 3b
       -0.044185825 0.011070302 0.014441641 0.002639712
000090 c3 74 55 3c 7b c9 c8 ba 85 66 06 bc fa 87 03 bb
       0.013028326 -0.0015318835 -0.0082031535 -0.0020070062
0000a0 00 f5 1a 3d 60 34 34 3b 4a a3 94 3c b2 fd e8 3b
       0.037831306 0.0027497038 0.018144269 0.007110321
0000b0 a1 7c 62 3c 16 22 0d 3d bd 70 a5 bc c4 8a 12 3c
       0.013823659 0.034456335 -0.02019536 0.008944217
0000c0 c8 15 b5 bc 23 4e b0 bc 84 1f 23 3d b2 d3 bc 3c
       -0.022105113 -0.021521633 0.039824978 0.023050163
0000d0 db a1 52 3c 0f 4e 26 3d 0f 69 d7 bb cf 1f 3f 3d
       0.012855972 0.040601786 -0.0065738033 0.046661194
0000e0 67 81 d9 3c 98 4d 9f 3c 8a ae c6 3c d2 d9 04 3c
       0.026550962 0.01944618 0.024253149 0.008108573
0000f0 6e 3d 03 3d 11 24 fd 3c 05 27 05 3d 08 97 9d 3b
       0.032041006 0.030900987 0.032507915 0.004809264

gat_net.0.linear_proj.weight f4 [64, 1433]
000000 54 78 ae 3d 95 18 60 bc b1 48 a6 3d 00 86 9f 3d
       0.085190445 -0.013677736 0.081193335 0.0778923
000010 ba 0a 24 be d9 45 dd bd 49 d9 7e bd d3 ec c4 3d
       -0.16019717 -0.10804338 -0.062218938 0.09615483
000020 ef be 72 bd 71 45 04 3d 1b 0a 15 3c 83 80 41 3d
       -0.05926412 0.032292787 0.009096648 0.0472417
000030 61 7f 0c bb 53 25 34 bd 0f af 29 bd fc ee 78 3c
       -0.0021438228 -0.043980908 -0.041426715 0.015193697
000040 77 af 2d 3d a0 f6 91 3c e1 e8 31 bd 24 b4 ac 3c
       0.042403664 0.017817795 -0.04343498 0.021081991
000050 cf 94 63 17 ec c3 26 3d f2 4c 3a bb 9f 08 a2 bd
       7.353548e-25 0.04071419 -0.002842721 -0.079118006
000060 6e eb e5 3b ba 59 10 3d cd 2c 34 3d ca 7c 33 bc
       0.007016591 0.03524182 0.043988038 -0.010955045
000070 25 53 a7 bd ea 8e ab 3b 82 2d c9 3d 82 01 9f bc
       -0.081701554 0.0052355425 0.09823133 -0.019409899
000080 98 9a 95 3b 4a bd 16 bc 74 48 98 bc e8 c1 86 bc
       0.004565548 -0.0092004035 -0.018589236 -0.016449884
000090 b0 9f 3d 3d 3c af 22 3c 4e f8 bd 3d 3c 5b 1d 3e
       0.046294868 0.009929474 0.09275876 0.15366834
0000a0 15 1a 00 be a2 73 66 3d 08 fa f5 bc 73 f5 49 bd
       -0.1250995 0.05626262 -0.03002645 -0.049306344
0000b0 67 7e aa 3d 55 27 b9 3d 54 23 13 3a 84 2a a8 3d
       0.083248906 0.09040705 0.0005612869 0.08211234
0000c0 8d 7d e2 3a 1e b4 3a b6 9e 12 23 3e 62 36 91 3e
       0.0017279849 -2.7821002e-06 0.1592507 0.28361803
0000d0 dd a2 79 3d 56 3f c7 3b dd a4 df bd 31 9b 67 bd
       0.060946334 0.0060805483 -0.10920117 -0.056544486
0000e0 b8 40 9d 3d c9 a9 18 bd 33 df 4f 3e 78 a6 0e be
       0.0767836 -0.037271295 0.20299987 -0.1393069
0000f0 61 f5 3f 97 a5 4a da bc 5c 72 87 bd 34 5a aa bc
       -6.202514e-25 -0.026646921 -0.06613609 -0.020794965
000100 3f cd 3e bd b4 0c 4b 3e 1e 0a ba 3b c9 d1 58 3d
       -0.046582457 0.19829065 0.0056774756 0.05293444
000110 c9 ae 5e 3d fe ad 8c 3c e9 39 15 3d 84 87 5a 3d
       0.054365907 0.01717281 0.03643218 0.053351894
000120 0f c2 26 bd 4b f3 d2 bd 87 70 02 3c 0a 7a a9 bd
       -0.040712412 -0.10300311 0.007961399 -0.0827523
000130 77 f1 68 3d dd 7b e8 3d 75 05 9e bc 41 f3 2e 3c
       0.056870904 0.1135175 -0.019289711 0.010678113
000140 8c 0a 50 3d 33 a5 a7 bd 24 d2 b9 3c 69 96 a7 3c
       0.05079131 -0.08185806 0.02268321 0.020457463
000150 99 d5 a5 bd e0 ae 42 be 48 b8 f4 bc 46 f2 c5 3d
       -0.08097381 -0.19012022 -0.029873028 0.096653506
000160 b2 81 b7 bd 4c 45 c4 3d 39 69 44 bd 07 2d a7 bd
       -0.08960284 0.0958353 -0.04795191 -0.08162885
000170 cd 99 04 bc 98 68 6d 3c e5 52 b5 bd 45 ad 43 3d
       -0.00809331 0.014490269 -0.088537015 0.047772665
000180 bf 5d 1c 3d 39 43 03 bd 6f aa c2 3d 73 7f a8 bd
       0.03817534 -0.03204653 0.09505164 -0.08227434
000190 9a 97 e6 bc ff e4 66 bc a1 f3 e7 3d 4f e6 b5 3c
       -0.028148461 -0.014092683 0.113257654 0.022204546
0001a0 37 9d e9 3d 9e 09 da bd 09 26 ad 3d 10 4f b3 bc
       0.114069395 -0.106463656 0.0845452 -0.021888286
0001b0 95 a8 ad 3d ec 83 51 bd d1 3a 4f bc fa e0 24 3d
       0.0847942 -0.0511512 -0.0126483 0.040253617
0001c0 12 65 87 bc 13 40 81 b9 01 53 32 bd 81 de 0e 3c
       -0.016527686 -0.00024652536 -0.04353619 0.008720041
0001d0 95 12 a0 bb 64 43 22 3b 95 5d 80 bc 41 5e ac bd
       -0.0048850277 0.0024759406 -0.015669623 -0.08416415
0001e0 50 3e 4f bd 93 55 04 be a3 6a 07 3e 19 b3 fc bd
       -0.050596535 -0.12923269 0.13224272 -0.12338848
0001f0 e1 d9 8a bd 84 d6 13 3d bc 1b 03 3d 37 72 2a 3d
       -0.06779838 0.03609325 0.03200887 0.04161283
000200 4f 68 03 3c e2 6e 77 3d c1 48 c9 bd 65 cf 2c 3e
       0.008020475 0.06040848 -0.0982833 0.1687599
000210 eb d0 24 3e 0b e8 3f 3e c7 5d 26 3d 50 fd a9 3d
       0.16095321 0.18740861 0.040616777 0.08300269
000220 74 77 59 3d 19 ed 0c 3c ea 7a ad 3c c4 80 92 3d
       0.053092435 0.00860145 0.021176774 0.07153466
000230 4c 73 c6 be 13 fa 9f bb da f2 e7 bd ab cd dd bc
       -0.3875984 -0.004882106 -0.11325617 -0.02707561
000240 fd 96 1e 3d 32 50 60 97 6f 7f 15 3c 67 22 3a bd
       0.038718212 -7.2479524e-25 0.009124621 -0.045442965
000250 6b 24 0a 3c 36 4a 44 3c 92 79 99 bd b2 f0 99 3d
       0.008431534 0.011980584 -0.07493891 0.07516612
000260 ed 0f b5 bc 15 b9 15 3e e9 ba 7b 3c 52 ca 0d bd
       -0.02210232 0.14621384 0.015364387 -0.034616776
000270 2e 26 54 bd 1b 5a 04 3e 71 87 80 bd 51 d5 64 bd
       -0.051794223 0.12924998 -0.062758334 -0.055867497
000280 b0 02 2b 3d 95 a9 98 3c dc 17 22 3e 89 59 2a be
       0.04175061 0.01863555 0.15829414 -0.16635717
000290 3a 15 11 be ac b7 89 3c 0a 32 03 bd 91 f2 7d bd
       -0.14168254 0.016811214 -0.032030143 -0.061998907
0002a0 0d 86 b5 3d c1 2f 2e bc d8 5a 88 bd a3 78 c7 39
       0.08863459 -0.010631503 -0.06657952 0.0003804612
0002b0 55 9d 07 3e c4 47 b7 3d e3 45 d3 bd 90 8e 0b bd
       0.13243611 0.08949235 -0.10316064 -0.034071505
0002c0 e8 8c ef bb 7a 5f 37 3d 98 56 a1 bb c9 d1 8d bd
       -0.0073104985 0.044768788 -0.004923653 -0.06924779
0002d0 7a b0 78 3d 4c de 70 bc 85 04 b2 bb 4d a7 31 3d
       0.060715176 -0.014701437 -0.0054326677 0.04337244
0002e0 0f 30 ac bc 01 8c f9 3a d5 77 0d bc 14 6c 16 3d
       -0.02101901 0.0019038917 -0.008634527 0.036724165
0002f0 10 48 ba 3d 8a 4b 61 bd 2b 3d 33 3d 9d 9c 8c bd
       0.09095776 -0.05500368 0.043759506 -0.06865809
000300 14 c9 0c be c1 cd 13 3d dc 55 d5 3d 08 f3 2e 3d
       -0.1374858 0.036084894 0.10416767 0.04271224
000310 ff d2 9a 3d d1 49 60 bb ec 0a 57 3d bd da f3 3c
       0.075597756 -0.0034223686 0.05250065 0.029767388
000320 a3 7f d1 3c 6d f1 62 bd 6b f4 aa bc 93 27 dc bd
       0.025573557 -0.055406023 -0.0208685 -0.10749736
000330 c3 bc 2a 3b 26 da b9 3d aa 22 67 bd 47 d3 a5 3c
       0.0026052452 0.09074812 -0.056429543 0.020242346
000340 fa a1 9e 3b f6 de c2 bb 8e b6 2a bc ef 20 3c 3e
       0.0048410865 -0.005946989 -0.010419501 0.18371938
000350 4e 68 a2 3e b9 b5 f9 bc 42 84 b3 3c ac f5 82 bc
       0.31720203 -0.03048216 0.021913651 -0.015986286
000360 17 68 c8 bb 00 4d 23 bd 2e 0b 6b bd bb 46 fd bc
       -0.006115924 -0.039868355 -0.05738371 -0.030917516
000370 7c 88 23 bd 48 2f 53 3b 6f e8 04 3d 91 56 de bb
       -0.039925084 0.0032224227 0.03244823 -0.006785222
000380 1a b3 be bd 5a 7e 9d bd cf e1 bf bd b5 92 96 bc
       -0.09311505 -0.07690115 -0.093692414 -0.018380502
000390 2c 19 39 3e 0e 89 26 3d 70 b7 18 3d 4e 42 35 bd
       0.18076009 0.04065805 0.037284315 -0.044252686
0003a0 7b fa 35 3d 58 d6 ad bd bb 65 38 be 23 30 75 bd
       0.04442833 -0.084881485 -0.18007557 -0.05986036
0003b0 b8 88 2b bc e3 18 4e 3e c5 3b b9 bc df ce ac 3d
       -0.010469608 0.20126681 -0.022611508 0.08437895
0003c0 72 c8 ab bd 43 2f 3f bc 79 49 22 bd ba 0c 7a 3c
       -0.08387841 -0.011668983 -0.03962085 0.015261823
0003d0 04 d7 c8 bd d7 bb fc 3c 9e f7 da 3b 6a 3d 39 be
       -0.09806636 0.030851288 0.0066823503 -0.18089834
0003e0 71 5b 10 be 24 09 7f 3d d7 ec 0d 3e d7 ab 24 bc
       -0.14097382 0.062264577 0.13859878 -0.010050735
0003f0 3f d8 1c 3d 37 34 1c bd c7 34 cc 3c a4 ff 24 bd
       0.038292166 -0.038135733 0.02492751 -0.04028286

gat_net.1.scoring_fn_target f4 [1, 1, 7]
000000 64 b3 90 bc c9 38 11 bc c2 5b c5 bd 62 b4 93 3c
       -0.017663665 -0.008863636 -0.09636642 0.01803035
000010 04 4f c8 3c e4 63 20 be c9 bc 16 bc
       0.02445174 -0.15663105 -0.009200283

gat_net.1.scoring_fn_source f4 [1, 1, 7]
000000 d6 16 29 3e 7f 03 25 3e 39 7b bd 3d 7b 7d 1b 3e
       0.16512617 0.16114615 0.092520185 0.15184586
000010 28 25 20 3e 20 62 fb 3c 9f 39 03 3e
       0.15639174 0.030686438 0.1281495

gat_net.1.bias f4 [7]
000000 ea 02 1e bc fc 87 78 bd 0c 76 38 3d 07 f1 28 bc
       -0.009644249 -0.06067656 0.045034453 -0.010311372
000010 bc a2 ca bd 71 1d b7 3d 11 f5 7f 3d
       -0.0989432 0.089411624 0.062489573

gat_net.1.linear_proj.weight f4 [7, 64]
000000 cf ae 7c 3e f8 10 ee be 49 b1 91 be ae d8 5b 3f
       0.24676059 -0.4649732 -0.2845557 0.858775
000010 fe 55 5c be 9f 36 f4 bd 72 a5 90 3f ec 31 00 bf
       -0.21517178 -0.11924481 1.130049 -0.50076175
000020 b0 1f ef 3e 88 d6 1c bf 95 64 37 be 75 44 88 bf
       0.46703863 -0.6126485 -0.17909463 -1.0645891
000030 7c 57 51 3f 0a 60 d6 be 49 ee 02 bf d6 68 ff be
       0.81774116 -0.41870147 -0.51144844 -0.4988467
000040 4a 1f 34 bf 83 2f ac 3e 8e 93 81 bc 22 bd 96 3e
       -0.70360243 0.3363 -0.01581743 0.29441172
000050 2a ae 38 3f 60 60 6c bf 86 5a 2c 3e 15 cf 0b 3c
       0.72140753 -0.92334557 0.16831407 0.008533259
000060 5e 51 b8 be 09 96 0a bf 74 de 35 bf bf d8 37 be
       -0.35999578 -0.54135185 -0.7104256 -0.17953776
000070 b7 48 25 3f fd 3b fa 3e 5b 24 21 bf 2d 47 b1 be
       0.6456408 0.48873892 -0.629461 -0.34624615
000080 05 ea 45 bf bc 06 e7 3d 6a 19 ed be 7a 0b 08 3f
       -0.7731021 0.11280581 -0.46308452 0.5314251
000090 2b 5a 08 3f 44 f8 4d 3e 9b e7 d9 3d 6d 67 39 bf
       0.53262585 0.20114237 0.10639878 -0.7242344
0000a0 f5 c3 30 3f ee 4b 61 3f 8c 32 6d bf ca ce 7e 3f
       0.69049007 0.88006485 -0.92655253 0.99534285
0000b0 9c e4 40 3c 95 fa 5b bf ca 24 0e bf e7 27 3a bf
       0.011773255 -0.8592923 -0.55524886 -0.72717136
0000c0 a9 09 e3 be 62 f4 26 3f aa 58 0a 3f cc 6f 25 bf
       -0.44343308 0.6521665 0.5404154 -0.64623713
0000d0 0c c6 9f bf c9 16 27 bf a4 91 4b 3e c0 6c bd be
       -1.2482314 -0.6526914 0.19879776 -0.36997032
0000e0 45 91 9c be 1c da fa be 21 96 00 3f cb f7 e0 3d
       -0.30579582 -0.4899453 0.5022908 0.10984763
0000f0 97 fa 1a 3f bd b7 82 bd 16 35 8a bf 4a b9 5b 3f
       0.6053862 -0.063827015 -1.079745 0.85829604
000100 21 86 dd 3e 28 e4 1c 3e d6 0d 52 be 8d 76 01 3f
       0.43266395 0.1532141 -0.2051309 0.5057152
000110 9f 9d 37 3f 27 8b 37 3f ec 07 0a bf b2 bd 29 bf
       0.71724886 0.71696705 -0.5391834 -0.6630508
000120 85 84 06 3f b5 80 92 bf 94 06 2f 3f da 3f 18 3f
       0.5254596 -1.1445528 0.6836941 0.5947243
000130 f1 88 4d 3f e9 b9 68 3f 3d 79 bd 3e 36 8d 57 3f
       0.8028708 0.90908676 0.3700656 0.84199846
000140 be 69 32 be b7 ce 6e 3e 12 4f 47 bf 91 a0 1e 3f
       -0.1742315 0.23321043 -0.77855027 0.61963755
000150 d1 9e 98 bf c9 52 45 3e 55 b1 26 bf d3 ed 3b 3f
       -1.1923467 0.19269861 -0.6511434 0.73409766
000160 40 9e 40 bf 9e 4f 01 bf fe dc 71 3f 39 bc 75 bf
       -0.7524147 -0.5051211 0.9447783 -0.9599033
000170 0f fb 1c 3e e6 c6 57 bf 7f 60 94 3e b8 ee 5b 3f
       0.15330146 -0.8428787 0.2897987 0.8591113
000180 52 8b 72 3f 77 aa 1c 3f 19 45 21 bf 24 76 6e 3f
       0.94743836 0.6119761 -0.6299606 0.9314902
000190 d2 87 94 3e db 3d a3 3e e3 6c 9b bf 0c b6 12 bf
       0.29009873 0.3188313 -1.2142605 -0.5730903
0001a0 37 d5 3e bf 17 92 50 bf 12 06 25 3f 67 1b 70 3f
       -0.7454409 -0.81472915 0.6446239 0.9379181
0001b0 66 88 50 3e 88 69 39 3f 1f 00 62 3f b3 10 51 bf
       0.20364532 0.7242665 0.88281435 -0.81666106
0001c0 0e 08 0b 3f f7 ed 4a 3f 96 e1 46 bf af 0f 1f 3f
       0.54309165 0.79269356 -0.77687967 0.62133306
0001d0 eb 52 91 be 33 f3 7e bf 53 7b 3b 3f 06 d2 06 3f
       -0.28383574 -0.9958984 0.7323505 0.5266422
0001e0 bb 98 67 bf 38 10 ac be e1 8e 84 3e e8 ce 5f bf
       -0.90467423 -0.33606124 0.25890258 -0.8742509
0001f0 56 6a 85 bf 5e 20 19 bf 53 18 0c 3f f0 a2 02 be
       -1.0423076 -0.59815013 0.54724616 -0.12757468
000200 ae f6 9d bf 8e d3 57 bf c4 fc a6 be 89 06 24 bf
       -1.2340906 -0.8430718 -0.3261472 -0.6407247
000210 b4 81 23 bf 73 03 9d 3e fa 04 fc be e2 75 15 bf
       -0.63869786 0.30666694 -0.49222547 -0.58383
000220 de f6 4c bf ff 96 a4 bd 7a ca 88 bf 47 68 ae be
       -0.8006419 -0.08036613 -1.0686791 -0.34063932
000230 ee f1 ba 3e 7b d2 fe 3e 21 94 2a bf ee 24 6d 3f
       0.36512703 0.4976996 -0.66632277 0.92634475
000240 a5 cc ec be 71 5a 3a 3f e8 37 39 3f 6c 9a 16 bf
       -0.4624988 0.7279425 0.7235093 -0.5882938
000250 e3 95 1b be 8b d7 3b 3f 0b 59 1a 3f f0 71 d7 3e
       -0.15193896 0.7337577 0.6029212 0.42079115
000260 01 24 26 3e d8 1a 89 3f 26 8f 7a bf e0 06 ae 3e
       0.16224672 1.0711317 -0.9787468 0.3398962
000270 45 9f 83 bf d5 7d 6d 3e 9d 10 72 bf 91 3e 77 3f
       -1.028298 0.23192532 -0.945566 0.96579844
000280 d0 12 13 3f d5 31 fd 3e a0 d6 4a bf 9f 9d 50 bf
       0.5745058 0.4945208 -0.7923374 -0.8149051
000290 63 29 99 bf de d0 88 bf 9d a1 b9 3e b8 92 c8 3e
       -1.1965755 -1.0688741 0.36256114 0.39174438
0002a0 29 88 03 3f 43 04 35 be 80 70 33 3f 85 93 27 bf
       0.5137964 -0.17677407 0.70093536 -0.6545947
0002b0 91 25 d5 be 44 2f 7d bf b1 ab 76 3f 71 56 62 be
       -0.41630223 -0.98900247 0.9635573 -0.22103287
0002c0 3d 2c 10 3f cf 89 14 bf 35 9a 8a bf 4f 85 a4 3e
       0.563175 -0.5802278 -1.082831 0.32132956
0002d0 4a 68 6c bf d4 29 2e 3f 1d d1 78 bf 3c 3b fd 3e
       -0.9234663 0.68032575 -0.9719408 0.49459255
0002e0 63 8b a6 3d 2d e4 8d bf 95 82 82 bf 98 7c eb 3e
       0.08132055 -1.1085259 -1.01961 0.45993495
0002f0 19 85 06 bd 21 6c 9a 3c 27 99 2e bf 1f 3f 86 bf
       -0.032841776 0.018850388 -0.6820244 -1.0488013
000300 f1 f8 11 bf 61 7f c0 3e b6 c6 af be 65 5a 0c bf
       -0.5702048 0.37597182 -0.34331292 -0.5482543
000310 07 7d ff 3e 41 b2 86 bf 18 8f db be e5 8f c8 3e
       0.49900076 -1.0523149 -0.4288261 0.39172283
000320 2a 9c 1a bf d3 a0 75 be 78 9d 4b bf d6 81 15 bf
       -0.6039454 -0.23987131 -0.79537153 -0.5840124
000330 9b 2a 14 bf 41 af 4e bf eb 77 8f 3f bd f7 c3 3e
       -0.5787751 -0.80736166 1.1208471 0.38274947
000340 04 aa 3f 3f db 9d 85 bf 23 a6 13 3f f1 0f 35 bd
       0.748688 -1.0438799 0.5767538 -0.044204656
000350 04 a5 c1 3e ec 30 ca be 08 83 b7 3e 10 23 ac be
       0.3782121 -0.3949045 0.35842156 -0.336205
000360 b6 c5 06 3f bb d1 ea 3e 69 e9 2e bf 41 83 70 bf
       0.5264543 0.45863137 -0.68324906 -0.9395028
000370 aa 25 45 bf b0 82 78 bf f8 45 5d 3e 58 de 18 3e
       -0.77010596 -0.97074413 0.21608722 0.14928567
000380 83 ca 2e bf f3 28 dc 3e 0e 2a 1c 3f e7 b8 a8 be
       -0.6827776 0.42999992 0.6100167 -0.3295357
000390 03 cf 21 3f 47 04 75 be 2d 62 81 bf 1d f7 20 3f
       0.632065 -0.23927413 -1.0108086 0.62877065
0003a0 4c a6 6a bf f5 8a 4e bf 25 71 06 bf 88 58 4d 3f
       -0.9166 -0.8068078 -0.52516395 0.8021321
0003b0 ce b2 04 3f 29 35 d6 3e 41 0a 16 be 4d 27 2e 3f
       0.51835334 0.41837433 -0.14652349 0.6802872
0003c0 c5 76 3d bf 97 68 90 be 26 3b 7a bf 5a f4 a1 3d
       -0.7400935 -0.28204796 -0.97746503 0.079079345
0003d0 dc 06 a2 3e b5 4f 29 bf c7 d1 71 3e d6 79 06 bf
       0.31645858 -0.6613725 0.2361518 -0.52529657
0003e0 ac fc 1c 3f dc 08 82 3f 49 97 5f bf 52 ae 45 bf
       0.61323047 1.0158954 -0.8734022 -0.77219117
0003f0 92 b7 be 3e 27 03 1c bf ae 9a 85 bf 0e 2f 10 3f
       0.37249428 -0.6094231 -1.043783 0.563218
