Graph/GNN/GAT/models/binaries/gat_000000.pth (torch, 373047 bytes, 8 tensors)

gat_net.0.scoring_fn_target f4 [1, 8, 8]
0	0x3d2070b6	0.03916999
1	0xbd408025	-0.04699721
2	0x3d5f3402	0.054492958
3	0xbda17d99	-0.07885284
4	0xbdcc17a7	-0.09965449
5	0xbd99ee6e	-0.0751618
6	0xbde08a1c	-0.10963842
7	0xbd6df575	-0.058095414
8	0x3dbbf5bb	0.09177729
9	0x3d87a319	0.06622905
10	0xbd0ccaa4	-0.03437294
11	0xbd63a4fc	-0.055577263
12	0xbda846d1	-0.08216632
13	0x3beaa364	0.007160591
14	0x3d8be6c4	0.068311244
15	0x3c87f3f6	0.016595822
16	0x3af84202	0.001894057
17	0x3da81173	0.08206453
18	0xb7f3c2b1	-2.9058518e-05
19	0xbccc2d9d	-0.024924094
20	0x3c84f06f	0.016227929
21	0xbdca5cce	-0.09880982
22	0x3db4c698	0.08826941
23	0xbb876071	-0.0041313698
24	0xbc8b114a	-0.016976018
25	0x3cba9a6e	0.022778716
26	0x3d8faab6	0.070149824
27	0x3d4e170d	0.05031495
28	0xbcc25d14	-0.023726024
29	0x3db48626	0.08814649
30	0x3ddffdf2	0.10937108
31	0x3e0233cd	0.12715073
32	0xbdf5ec46	-0.12007956
33	0x3c91fe4a	0.01782145
34	0xbbbd34fc	-0.0057741385
35	0x3dfb4c65	0.122704305
36	0x3d852b70	0.06502426
37	0x3ce897d7	0.028392715
38	0xbda61753	-0.081099175
39	0x3b782ecf	0.0037869697
40	0xbdb5304d	-0.08847103
41	0x3d74a1a8	0.05972448
42	0xbb048b45	-0.0020224613
43	0x3c99e29a	0.01878481
44	0x3ca43e47	0.020049227
45	0xbd62d8c9	-0.055382524
46	0x3d02699f	0.03183901
47	0xbc97ec1d	-0.018545205
48	0xbd8aac0b	-0.06771096
49	0x3d25057e	0.04028844
50	0xbc32aa77	-0.0109049
51	0xbd920f97	-0.0713188
52	0x3c7f8525	0.015595709
53	0xbdea104d	-0.114288904
54	0xbddf50cf	-0.10904085
55	0xbe094392	-0.13404682
56	0x3cd143b8	0.025544986
57	0xbc2017a3	-0.00977126
58	0xbdf66427	-0.12030821
59	0xbbce0ad3	-0.0062879114
60	0xbcc46849	-0.023975508
61	0xbd58878c	-0.052863643
62	0xbabbafef	-0.00143194
63	0x3c622a29	0.013803997

gat_net.0.scoring_fn_source f4 [1, 8, 8]
0	0xbd2c13c9	-0.042011056
1	0x3b7e77e2	0.003882878
2	0x3ebfe5c9	0.3748
3	0xbca50fad	-0.020149076
4	0xbe23889e	-0.15970084
5	0xbe5a797a	-0.21335402
6	0xbe1fb04b	-0.15594594
7	0xbd6f478d	-0.058417846
8	0x3eff95e0	0.49919033
9	0x3ec67bb9	0.38766268
10	0xbe5fc7e5	-0.21853597
11	0xbe217b67	-0.1576973
12	0xbe4ef2a9	-0.20209755
13	0xbcdd4141	-0.027008655
14	0x3e8871ea	0.2664941
15	0xbd824508	-0.06360823
16	0xbe396c89	-0.18107809
17	0xbca40e85	-0.020026455
18	0x3e84bc8e	0.25925106
19	0xbe814602	-0.25248724
20	0x3ef856c7	0.48503706
21	0xbda99a91	-0.08281434
22	0x3e236a88	0.15958607
23	0x3d89a0f4	0.067201525
24	0xbe88cee4	-0.26720345
25	0xbd499679	-0.049215768
26	0x3e7c2c73	0.24626331
27	0x3db71b39	0.08940739
28	0x3da88590	0.082286
29	0x3eaf6c04	0.34262097
30	0x3ee165fc	0.4402312
31	0x3e7173e4	0.23579365
32	0xbe09d955	-0.13461812
33	0x3e3ecc82	0.18632701
34	0x3d0507c4	0.03247811
35	0x3eb1d23b	0.34730706
36	0x3e2857b7	0.1643971
37	0x3ea033ab	0.3128942
38	0x3dd19c26	0.10234861
39	0x3e3f357e	0.1867275
40	0xbeae9d5b	-0.34104428
41	0x3e469f0b	0.19396608
42	0xbeaa6949	-0.3328345
43	0xbc3faa19	-0.011698269
44	0xbc0f0751	-0.008729772
45	0xbdc11abd	-0.09428928
46	0x3e884100	0.2661209
47	0xbcb51beb	-0.022108039
48	0xbecf3fe5	-0.40478435
49	0xbceadeb5	-0.028670648
50	0x3da2442b	0.07923158
51	0x3d9895fd	0.07450483
52	0x3db4ba12	0.088245526
53	0xbdb66ba8	-0.089072526
54	0xbe9878ce	-0.29779667
55	0xbe0bf397	-0.13667141
56	0x3e819a58	0.25313067
57	0xbc83e683	-0.016101127
58	0xbd2d0cc3	-0.0422485
59	0x3db7ce37	0.08974879
60	0x3e270580	0.16310692
61	0xbe8f2b70	-0.27962828
62	0xbe294471	-0.16530015
63	0x3e042fb6	0.12908825

gat_net.0.bias f4 [64]
0	0x3cd8c8c9	0.02646293
1	0xbc81670e	-0.01579621
2	0x3d8710af	0.06594979
3	0x3d2261bc	0.039643988
4	0x3c92b474	0.017908312
5	0x3cbd53c9	0.023111241
6	0xbd07fee1	-0.033202056
7	0xbbe9bda6	-0.0071332036
8	0x3cc31383	0.023813015
9	0x3cf148c3	0.02945364
10	0x3cbda0ed	0.023148024
11	0xb9efc7c5	-0.00045734472
12	0x3c308774	0.010774482
13	0x3cf0dd53	0.02940241
14	0x3c2a7a5f	0.010405152
15	0x3c410bf0	0.011782631
16	0x3cb75626	0.022379946
17	0xbbec4d91	-0.007211395
18	0x3caf626e	0.02140924
19	0xbc0b695f	-0.008509009
20	0x3cba65e4	0.022753663
21	0x3c3602dc	0.01110908
22	0xbb18036b	-0.0023195397
23	0x3cdf183d	0.027233237
24	0x3cac75bd	0.021052236
25	0xbbd29995	-0.006427
26	0xbc16f61d	-0.009213951
27	0x3bad6b27	0.0052923146
28	0x3a4d264f	0.0007825838
29	0x3c9be022	0.019027773
30	0x3d231c25	0.039821763
31	0x3c8f1dc6	0.017470252
32	0x3d3ff40a	0.046863593
33	0x3c312178	0.010811202
34	0x3cddce5e	0.027075943
35	0x3ceaf504	0.028681286
36	0xbc698ba3	-0.014254483
37	0x3d0e2e1d	0.034711946
38	0x3d2540b8	0.040344924
39	0xbc244656	-0.010026535
40	0x3cab2383	0.020890957
41	0x3d0b40f2	0.033997484
42	0x3cc75e05	0.024336824
43	0x3ca02f0b	0.019553682
44	0x3a8e0e62	0.0010838027
45	0x3cc7d968	0.02439566
46	0x3cdb5414	0.02677349
47	0x3d0072c9	0.031359468
48	0x3bf5b127	0.007497925
49	0xbaec0684	-0.0018007313
50	0x3d0e3ada	0.034724094
51	0xbc35530d	-0.011067164
52	0x3cb75883	0.022381073
53	0x3b08d95f	0.0020881516
54	0x3ca20a34	0.019780256
55	0xbc76ac95	-0.015055795
56	0x3cea43d3	0.028596794
57	0x3c62f330	0.013851926
58	0x3d0cdc14	0.03438957
59	0x3d1e5bae	0.03866165
60	0x3d10a4bb	0.03531335
61	0x3c29f042	0.010372223
62	0x3cdffb3e	0.027341481
63	0x3aa6aa61	0.0012715572

gat_net.0.linear_proj.weight f4 [64, 1433]
0	0xbc6fa41b	-0.014626528
1	0xbd7de0d1	-0.06198198
2	0xbe31f240	-0.17377567
3	0x3cdf49cc	0.027256869
4	0xbcdc96ed	-0.026927436
5	0xba378a7e	-0.0007001533
6	0xbd44e5f1	-0.04807085
7	0xbd9fb30c	-0.07797822
8	0xbcc92352	-0.024552975
9	0xbcb8646c	-0.022508822
10	0x3c51cab5	0.012804677
11	0xbd551874	-0.052025273
12	0xbdfcd39e	-0.1234505
13	0xbbf18083	-0.007370056
14	0xbd6a87d2	-0.057258435
15	0xbca6ae41	-0.020346763
16	0xbdba72e6	-0.091039464
17	0xbc2fb9d1	-0.010725454
18	0xbc88f54e	-0.016718533
19	0xbe275b73	-0.16343479
20	0x07b8ca89	2.7804282e-34
21	0x3cfe1b5e	0.031018909
22	0xbbc587f2	-0.006028169
23	0xbc86ee11	-0.01647094
24	0x3d03abdb	0.032146316
25	0x3e1c70b5	0.1527737
26	0x3d892946	0.066973254
27	0x3bb35afe	0.0054734936
28	0xbaa421cc	-0.0012522279
29	0x3e16bf1b	0.14721338
30	0xbbf5238e	-0.007481045
31	0x3c348a06	0.0110192355
32	0x3c04215e	0.008064596
33	0x3c807081	0.015678646
34	0xbc302317	-0.010750554
35	0xbb2abb6a	-0.002605165
36	0xbd8776a9	-0.066144295
37	0xbc97fab6	-0.018552165
38	0xbde27ae0	-0.11058593
39	0x3d46558c	0.048421428
40	0x3e00851f	0.12550782
41	0xbc1af2a4	-0.009457264
42	0xbc290cbd	-0.010317978
43	0xbbe67384	-0.0070328135
44	0xbdb70e7e	-0.08938311
45	0xbb771a06	-0.003770472
46	0xbbb2a060	-0.005451247
47	0x3ca741c2	0.020417098
48	0xbd802228	-0.06256515
49	0x3c2de874	0.010614503
50	0x3da21782	0.0791464
51	0xbe425e2c	-0.18981236
52	0x3e495e1d	0.19664808
53	0x3c83d918	0.01609473
54	0x3cc70574	0.024294592
55	0xbdbf3324	-0.09335926
56	0x3dd2c9a8	0.10292369
57	0xbdd572ac	-0.104222625
58	0xbc53455b	-0.012894954
59	0xbc2c8ae6	-0.010531163
60	0x87dacff2	-3.2923214e-34
61	0xbebdad71	-0.37046388
62	0x3cbf054f	0.023317961
63	0x3df26c5f	0.118370764
64	0x3de9dc71	0.11418999
65	0xbd0e4343	-0.034732115
66	0x3d99c185	0.07507614
67	0x3d83183d	0.064011075
68	0xbd640703	-0.05567075
69	0x3ced3bdd	0.02895921
70	0x3df0e701	0.117628105
71	0x3cd8a2c3	0.026444798
72	0x3d704869	0.058662806
73	0x3dbc8a4d	0.09206066
74	0x3d1cc878	0.03827712
75	0x3e32131d	0.17390104
76	0x3d77187c	0.060326084
77	0xbe876a80	-0.2644844
78	0xbdd212f0	-0.10257518
79	0x3c8313c9	0.016000645
80	0x3cf8b67d	0.030360455
81	0x3e5c499e	0.21512458
82	0xbdb2177c	-0.086958855
83	0xbcc4c9cf	-0.024022011
84	0x3cdab343	0.026696807
85	0x3e5a293c	0.21304792
86	0x3dd69ac7	0.1047874
87	0xbce2b347	-0.027673377
88	0xbd8d5fcb	-0.06903037
89	0xbe2fa5cf	-0.17153095
90	0xbb84366e	-0.004034809
91	0x3d089701	0.033347134
92	0xbe4f7da9	-0.2026278
93	0x3cc7c455	0.02438561
94	0xbc199c18	-0.009375595
95	0xbdd6fbb7	-0.104972295
96	0x3c92df3b	0.01792871
97	0xbba3adb7	-0.0049950737
98	0x3e4e4271	0.20142533
99	0xbe7c0d1d	-0.24614377
100	0xbbad0f7c	-0.005281387
101	0x3b0e7e5f	0.0021742804
102	0xbe1caeaa	-0.15301004
103	0x3da046f2	0.07826032
104	0xbd2534b9	-0.040333483
105	0xbd07b44d	-0.033130933
106	0x3d9374f8	0.072000444
107	0x3c1ba20f	0.009499087
108	0xbc1e8925	-0.0096762525
109	0x3d719b48	0.05898598
110	0x3c50aab9	0.012736016
111	0xbd2562c2	-0.040377386
112	0x3b8503df	0.0040592994
113	0x3796ea02	1.7990362e-05
114	0xbd2718ed	-0.040795255
115	0xbd64b9bf	-0.055841204
116	0xbd691628	-0.056905895
117	0x3ca5bc4e	0.020231392
118	0xbe00fcc8	-0.12596428
119	0x3cb69b69	0.022290902
120	0x3d826311	0.06366552
121	0x3dc448f3	0.095842265
122	0x3e08db04	0.13364798
123	0x3c02de2f	0.007987543
124	0xbd207edd	-0.039183486
125	0xbe39f999	-0.1816162
126	0xbe276047	-0.1634532
127	0xbcb65b91	-0.02226046
128	0xbdc0b800	-0.09410095
129	0x3c08cd18	0.008349679
130	0x3e358b86	0.17729005
131	0xbd8dafa4	-0.069182664
132	0x3cd62cd1	0.026144417
133	0x3d3e204b	0.046417516
134	0xbd883364	-0.06650427
135	0xbded2dc4	-0.11580995
136	0x3d027863	0.03185309
137	0xbcf771b6	-0.030205589
138	0xbc0d0a2a	-0.00860838
139	0xbb8060bc	-0.0039177816
140	0xbed30074	-0.41211283
141	0x3ac15aaf	0.0014751757
142	0xbb2891bf	-0.0025721637
143	0x3dfeef00	0.124479294
144	0x3ca00982	0.019535784
145	0x2dc03f16	2.1855889e-11
146	0x3d577abc	0.052607283
147	0x3d6c13f2	0.05763621
148	0x3c145084	0.0090524
149	0xbdde2c90	-0.10848343
150	0x3ddbf81f	0.10740685
151	0xbdfe7a24	-0.1242564
152	0xbcc9ed9d	-0.024649436
153	0xbe0729f0	-0.13199592
154	0xbb8be290	-0.0042689517
155	0x3d1145bf	0.035466906
156	0x3d21e579	0.039525483
157	0x3d401bcd	0.046901513
158	0xbb202613	-0.0024436757
159	0xbd1a218e	-0.037629656
160	0x3d270c14	0.040783003
161	0x3d0a7888	0.033806354
162	0xbd01ed70	-0.03172058
163	0xbd547b80	-0.05187559
164	0x3bababd1	0.005238988
165	0x3c2583f6	0.010102263
166	0xbce2157f	-0.02759814
167	0xbde66bb5	-0.11251012
168	0xbe493753	-0.19650011
169	0xba934147	-0.0011234664
170	0xbd275a94	-0.040857866
171	0xbd342b91	-0.04398686
172	0xbe38ced3	-0.18047647
173	0x3d9e41e7	0.077274136
174	0xbcdf8fd4	-0.027290262
175	0x3aabbcd6	0.0013102542
176	0x3e3aaa35	0.18228991
177	0xbd9e87db	-0.07740756
178	0x3d14f6ba	0.03636811
179	0xbad2a338	-0.0016070371
180	0xbae4ab1c	-0.0017446014
181	0xbe06f8e9	-0.13180889
182	0xbcb901b9	-0.02258383
183	0xbcef8a3a	-0.029240716
184	0x3cb43bdf	0.022001205
185	0x362e4bba	2.59721e-06
186	0xbd6f36aa	-0.05840174
187	0xbe06f1c9	-0.13178171
188	0x3d4ce51c	0.050023183
189	0xbcf53819	-0.029933976
190	0xbd957173	-0.07297029
191	0xbe320b67	-0.17387162
192	0xbd1185b4	-0.0355279
193	0x3b89b86f	0.0042028944
194	0x3d147d27	0.036252167
195	0x3d53a629	0.051672135
196	0xbd2fee48	-0.042951852
197	0xbcfa137f	-0.030526875
198	0xbd5e18b7	-0.05422279
199	0xbd826e68	-0.063687146
200	0xbb806235	-0.003917957
201	0x3bb3435c	0.0054706763
202	0x3b92095b	0.0044566817
203	0x3d9a7016	0.0754091
204	0x3c006ea7	0.007838882
205	0x3c71d227	0.014759577
206	0x3c17b2e2	0.009258958
207	0x3dab9394	0.08377758
208	0xbe12924c	-0.1431362
209	0xbc8cecfb	-0.017202845
210	0x3d923c9d	0.07140467
211	0x3de44ac7	0.11147075
212	0xbd2cbf3e	-0.04217457
213	0x3c69ca9e	0.014269499
214	0x3e34a307	0.17640315
215	0x3bddf5fa	0.0067737075
216	0x3d0de5dc	0.03464304
217	0x3ddd545f	0.10807108
218	0x3da2d0a8	0.07949954
219	0x3ccd081e	0.025028285
220	0x3bada1e3	0.0052988394
221	0xbcc64515	-0.024202863
222	0x3db808f0	0.0898608
223	0x3c839cf2	0.016066048
224	0x3c85c20d	0.016327882
225	0x3c158c45	0.009127681
226	0x3c973cd9	0.018461632
227	0xbcc5cfaa	-0.024146874
228	0x3dbfeac7	0.09370952
229	0xbcb14b99	-0.021642493
230	0x3d236b08	0.039896995
231	0x3c0a7136	0.008449843
232	0xbd77859b	-0.06043015
233	0x3cd2d5a5	0.02573664
234	0xbd33d99d	-0.043908704
235	0x3a71b6fb	0.00092206866
236	0xbcdb9080	-0.026802301
237	0x3e452782	0.19253352
238	0xbd1a601d	-0.037689317
239	0x3d7894f8	0.060688943
240	0xbb81931c	-0.0039543044
241	0x3ca70c27	0.020391537
242	0xbd9803f0	-0.07422626
243	0xbd456f5e	-0.04820191
244	0xbd9ea1d1	-0.07745708
245	0x3d0b7b22	0.034052975
246	0xbb689fa5	-0.0035495546
247	0x3dfa3a86	0.12218194
248	0x3d971280	0.073765755
249	0xbdaef772	-0.0854329
250	0xbd5c0c91	-0.05372292
251	0xbc437d2d	-0.0119317
252	0x3d0ec40e	0.03485494
253	0x3d7c08ff	0.061532017
254	0xbd9784a5	-0.07398347
255	0x3dcbf9b3	0.09959736

gat_net.1.scoring_fn_target f4 [1, 1, 7]
0	0xbce754b4	-0.028238632
1	0x3ce49bf0	0.027906388
2	0xbd48834d	-0.048953343
3	0xbdfb0974	-0.122576624
4	0xbd05edc5	-0.032697458
5	0x3bc92f7a	0.006139693
6	0xbd559bba	-0.052150466

gat_net.1.scoring_fn_source f4 [1, 1, 7]
0	0x3dadffd3	0.0849606
1	0x3da5274f	0.08064138
2	0x3c996a45	0.018727431
3	0x3c6fbcd9	0.014632427
4	0x3d3299a8	0.04360357
5	0x3bd19927	0.006396431
6	0x3cca9f55	0.024734179

gat_net.1.bias f4 [7]
0	0x3cb4ca13	0.022069013
1	0xbe005934	-0.12534028
2	0x3d1a548d	0.03767829
3	0x3d3b3ce3	0.045712363
4	0xbda66e29	-0.0812648
5	0x3d00bb81	0.031428818
6	0x3ccfb8a2	0.025356594

gat_net.1.linear_proj.weight f4 [7, 64]
0	0x3f45d7ca	0.7728239
1	0x3ef37db1	0.47556832
2	0xbf1fe4df	-0.62458605
3	0xbce2fd39	-0.027708637
4	0xbf748be7	-0.95525974
5	0x3f7da74e	0.9908341
6	0xbec369d6	-0.38166684
7	0x3f2f8818	0.6856704
8	0x3f1f4588	0.6221547
9	0xbed9ad39	-0.4251497
10	0xbe8f5484	-0.27994168
11	0xbf8069fe	-1.0032346
12	0x3f472dc8	0.7780423
13	0x3ea59545	0.32340446
14	0xbfa60998	-1.2971678
15	0x3e6fb880	0.23410225
16	0xbf00319c	-0.500757
17	0x3e9c30a0	0.30505848
18	0xbf4573db	-0.77129906
19	0x3ec64075	0.38721052
20	0x3e9c8ae1	0.30574706
21	0x3f3278af	0.697154
22	0xbf6b14c3	-0.91828555
23	0xbfa10fc4	-1.2582936
24	0x3e37dd34	0.17955476
25	0x3f42cfb8	0.76098204
26	0xbfbd1af4	-1.477385
27	0xbddbb12d	-0.10727153
28	0x3f5aa671	0.8541022
29	0xbed1bc35	-0.40963903
30	0x3e1bc1ee	0.15210697
31	0xbf56eaf1	-0.8395224
32	0x3edb3380	0.4281273
33	0x3ec21637	0.37907574
34	0x3e90e4f9	0.28299692
35	0xbcafb6f4	-0.021449544
36	0xbf114e41	-0.5676003
37	0xbea0267c	-0.3127936
38	0xbd88b5d4	-0.06675306
39	0x3e40a122	0.18811467
40	0x3f8f0c7b	1.1175684
41	0xbf554107	-0.8330235
42	0xbf44c3a9	-0.76861054
43	0xbf8dcf93	-1.1078972
44	0x3f329834	0.69763494
45	0x3f0d1584	0.55110955
46	0xbf43c33a	-0.7646977
47	0x3f25d662	0.6478025
48	0xbf0dbe4e	-0.55368507
49	0xbf28fad5	-0.6600774
50	0x3f1f9f33	0.62352294
51	0xbefa0015	-0.48828188
52	0xbf9e8f44	-1.2387471
53	0x3f6eca4b	0.93277425
54	0xbd892957	-0.06697338
55	0xbf149b4a	-0.5804945
56	0xbe635d71	-0.22203614
57	0xbf281413	-0.6565563
58	0x3f557e01	0.8339539
59	0x3e3d63f7	0.18495165
60	0xbf18a10d	-0.59620744
61	0xbf9ed423	-1.2408489
62	0xbf2a9c87	-0.6664509
63	0x3edeba23	0.43501386
64	0xbf34fe9a	-0.7070099
65	0x3f6e2bf1	0.930358
66	0xbfb6bd6a	-1.4276555
67	0x3ed38072	0.41308933
68	0x3f33565c	0.7005365
69	0x3d568455	0.052372295
70	0x3fae2972	1.3606398
71	0xbdee57c7	-0.11637836
72	0x3e56c1a1	0.20972301
73	0x3f001aa4	0.5004065
74	0xbf1e7149	-0.6189161
75	0xbf836119	-1.0264007
76	0xbdca8e7f	-0.0989046
77	0xbf9c2a2b	-1.2200369
78	0x3f5b8be0	0.8576031
79	0xbfa723d5	-1.305781
80	0xbf62b6f9	-0.88560444
81	0x3f50651b	0.81404275
82	0x3f1cfa98	0.61319876
83	0xbf3b96fe	-0.7327727
84	0x3f0341b8	0.51272154
85	0xbef6b339	-0.4818361
86	0x3f741e32	0.95358574
87	0xbf8456f8	-1.0339041
88	0x3f279171	0.654563
89	0xbf7d4cd3	-0.9894535
90	0x3e0128d0	0.12613225
91	0xbf6b6321	-0.91948134
92	0x3f145250	0.579381
93	0x3e211e3c	0.1573419
94	0x3ebc9b43	0.36837205
95	0x3f781244	0.9690287
96	0xbfb2555f	-1.3932303
97	0x3ecaef58	0.3963573
98	0xbf2f1d8a	-0.6840445
99	0x3f0699bb	0.52578324
100	0x3f858c8d	1.0433518
101	0xbe4ebb56	-0.2018865
102	0x3ee32e63	0.44371328
103	0xbe2083de	-0.15675303
104	0xbeaa39a7	-0.3324711
105	0xbf4372f5	-0.76347286
106	0xbfcc4434	-1.5958314
107	0xbf90deda	-1.1318009
108	0xbf60f0ed	-0.87867624
109	0xbf75a6c6	-0.959576
110	0x3f24b509	0.6433874
111	0xbe6445ae	-0.22292206
112	0xbfa2e804	-1.2727056
113	0x3f0ba2b7	0.5454516
114	0x3f424dc9	0.7589994
115	0xbededb56	-0.43526715
116	0x3f1a1076	0.6018137
117	0xbf5c874e	-0.8614396
118	0xbfaa3abb	-1.3299173
119	0xbf40064b	-0.750096
120	0x3f0f8ddc	0.56075835
121	0xbf5a0e78	-0.8517833
122	0xbfa5615c	-1.2920337
123	0xbf317bae	-0.69329345
124	0x3ed3b67e	0.41350168
125	0xbf528683	-0.822365
126	0xbf955600	-1.166687
127	0xbfa896e0	-1.3171043
128	0xbfc62f2e	-1.5483148
129	0x3f53b01a	0.82690585
130	0x3dd52a8f	0.10408508
131	0xbf9c01c7	-1.2188042
132	0xbf8f77a3	-1.1208385
133	0xbf897a7e	-1.0740507
134	0xbf1014e0	-0.5628185
135	0xbf48b135	-0.78395396
136	0x3db597ca	0.08866842
137	0x3ef7f3cd	0.48428193
138	0xbf911ca6	-1.1336868
139	0x3f862f8c	1.048326
140	0xbf904183	-1.1269993
141	0xbe7f59fe	-0.24936673
142	0xbf357b07	-0.7089085
143	0x3d6b2975	0.057412583
144	0xbf673374	-0.90312886
145	0xbf533ba9	-0.8251291
146	0xbf9329b5	-1.1497103
147	0x3f7eda51	0.99551874
148	0xbf9d378b	-1.2282575
149	0xbf9a45e9	-1.2052585
150	0x3f08e3ae	0.5347241
151	0xbeb77c5a	-0.3583706
152	0xbf737b27	-0.9510979
153	0x3f77980d	0.96716386
154	0x3ebe1ad7	0.37129852
155	0x3f92ab1c	1.1458468
156	0xbf913b1a	-1.1346161
157	0x3f1d1cf7	0.6137232
158	0x3e5f82b5	0.21827205
159	0xbf62e6d7	-0.88633484
160	0xbf4d9ca5	-0.80317146
161	0x3e12175f	0.14266728
162	0xbfc88183	-1.5664524
163	0x3f1765d0	0.5913973
164	0xbf474057	-0.7783255
165	0x3f50fea4	0.8163855
166	0xbe875940	-0.2643528
167	0xbf1270f0	-0.5720358
168	0xbf6b2ed3	-0.91868323
169	0xbf0b5f41	-0.5444222
170	0x3efbcb03	0.49178323
171	0xbfa31c52	-1.2743018
172	0xbe7aeb6e	-0.24503872
173	0xbe750084	-0.23925978
174	0xbed80e62	-0.42198473
175	0xbf261a6e	-0.6488408
176	0x3f38ab77	0.72136635
177	0x3d21d884	0.039513126
178	0x3f0fbb5f	0.5614528
179	0x3fbde68a	1.483598
180	0x3e7ebb40	0.24876118
181	0xbf1d09ea	-0.6134325
182	0xbeb3d50f	-0.35123488
183	0x3f73d6ca	0.9524962
184	0x3e430c00	0.19047546
185	0x3f66adad	0.9010876
186	0xbfabda7c	-1.3426051
187	0x3ebb2021	0.3654795
188	0xbf8f90db	-1.1216081
189	0xbf80088e	-1.0002611
190	0xbd9939cf	-0.07481729
191	0x3ebf5cf6	0.3737561
192	0x3f1bc8c3	0.60853213
193	0xbf67231d	-0.90287954
194	0x3d1d37f1	0.038383428
195	0xbfaefe06	-1.3671272
196	0x3c00b2c1	0.007855118
197	0xbf412c30	-0.7545805
198	0x3f3d859e	0.7403201
199	0xbf201620	-0.6253376
200	0xbfae708a	-1.3628094
201	0x3e303b50	0.17210126
202	0x3f25443e	0.64557254
203	0x3f79fa15	0.9764722
204	0x3f51b383	0.8191454
205	0xbf8191c4	-1.0122609
206	0xbfa18d8b	-1.262132
207	0xbf91d9a3	-1.1394542
208	0x3f56454c	0.8369949
209	0x3f159f5c	0.5844629
210	0x3d5b48b3	0.05353613
211	0xbdd5776b	-0.10423168
212	0xbf31d956	-0.69472253
213	0x3efff8e9	0.4999459
214	0x3f493622	0.78598225
215	0x3ee44d34	0.4459015
216	0x3f3d0e09	0.7384954
217	0xbf2c9f03	-0.6743013
218	0xbf9b267a	-1.2121117
219	0xbf82dd9e	-1.0223882
220	0xbf6f6d37	-0.93526024
221	0x3d988b28	0.07448417
222	0xbfc0fa92	-1.5076468
223	0xbeaac1d3	-0.33351
224	0xbf8dcba4	-1.1077771
225	0x3eb9532a	0.36196262
226	0xbf8bb1e7	-1.0913666
227	0xbfbc652c	-1.4718375
228	0xbef2a634	-0.47392428
229	0x3d54b930	0.05193442
230	0xbddcc2cb	-0.10779341
231	0xbf12ac36	-0.57294023
232	0x3f1b0aac	0.6056316
233	0x3e29d6cb	0.16585843
234	0xbfad7f2d	-1.3554436
235	0x3ef70a26	0.4824993
236	0x3f864efe	1.0492857
237	0x3e358523	0.17726569
238	0xbf7e825b	-0.99417657
239	0x3d88c6a9	0.066785164
240	0x3ec8b367	0.39199373
241	0x3f0c7a66	0.54874265
242	0xbdd6e898	-0.104935825
243	0xbf1e7200	-0.618927
244	0x3e0d6227	0.13806973
245	0x3f5a4321	0.8525868
246	0x3f112047	0.56689876
247	0x3f73ecc0	0.95283127
248	0xbf86c80d	-1.0529801
249	0x3f1762ed	0.59135324
250	0x3e81f576	0.25382584
251	0x3e8a1a53	0.2697321
252	0xbe9e626f	-0.30934474
253	0x3f29b6c1	0.66294485
254	0x3e92573a	0.28582174
255	0xbfa09f2b	-1.2548574
